model/best_model_fold0.pth (torch, 169621 bytes, 93 tensors)

conv1.0.weight f4 [32, 1, 3, 3]
-0.47868994 0.23624396 0.28538117 -0.08912258 0.1541616 0.08544407 0.1645048 -0.03187944
-0.27567497 -7.632963e-33 3.9704195e-29 7.7100484e-28 2.7180054e-27 1.3968307e-27 1.3084598e-25 5.5143083e-25
2.54348e-23 3.082541e-24 0.023377646 0.023065943 0.02346302 0.02284314 0.023025181 0.023595683
0.023765177 0.023669807 0.024182003 -0.08128735 -0.32675156 0.38681158 -0.07390576 -0.27357876
0.40086824 0.075014494 -0.11632542 0.0029821843 0.00061136455 0.00059852435 0.000523665 0.0006425439
0.00065656105 0.0005453242 0.000701131 0.0007542309 0.0006561432 3.7021462e-06 3.4397942e-06 1.8863686e-06
1.5336411e-06 9.829963e-07 8.652353e-07 1.6069199e-06 7.794066e-07 5.5761717e-07 -0.07266117 -0.15797709
-0.04669599 0.30117962 0.039701484 0.007790307 0.20858307 -0.057021603 0.018405303 1.4086135e-07
1.4747864e-07 1.3629432e-07 8.235358e-08 7.668208e-08 5.2916317e-08 7.4155736e-08 6.536267e-08 3.5303207e-09
-0.24967797 -0.21379271 -0.25369623 0.16829368 0.27193978 0.35817042 -0.07411116 0.06118954
-0.15847972 0.039106473 0.111932166 -0.048553858 0.055590577 0.02662994 -0.01145536 0.032096483
0.021868158 0.025625667 0.024252217 0.024000416 0.025007276 0.026129812 0.02308115 0.02384545
0.026809258 0.024953948 0.026534673 6.502e-42 -3.3529982e-34 2.8696107e-18 -6.25e-43 6.1594417e-28
4.8490926e-16 4.554e-42 1.7985586e-38 3.659559e-18 2.203399e-31 2.789145e-31 2.6925472e-31 2.062239e-31
2.4479924e-31 2.2484188e-31 3.0612029e-31 3.3059763e-31 2.4291283e-31 0.013089979 0.01497128 0.014735722
0.007540973 0.007961227 0.010498891 0.009546676 0.010012465 0.010678743 0.13638021 0.27390632
0.4691075 -0.002064421 0.18165469 -0.30604982 -0.14841634 -0.34220493 -0.24485034 -0.17283365
-0.04763104 -0.0833063 -0.2659737 -0.02140423 0.3646638 -0.054701086 0.18081588 0.4200454
7.888814e-19 2.826559e-18 1.7328553e-18 1.2516834e-18 3.5901103e-18 2.5042568e-18 9.757651e-19 3.7399698e-18
1.802578e-18 -0.14195505 -0.029118191 -0.07270706 0.13507082 0.36779198 0.25586647 0.06049167
-0.36808664 -0.08605375 0.17760162 -0.34477118 -0.38218388 -0.13992216 0.099960364 -0.1976375
0.29158056 0.44776165 0.057324346 0.000104149505 0.00022020307 0.0002076445 0.00016096751 0.00022876934
0.00020784418 0.0001449656 0.00019596942 0.00011683566 0.14385168 0.32677752 -0.10679793 0.21659727
0.14763944 0.2502079 -0.19160794 -0.34401894 -0.26986477 5.1905858e-23 3.6015857e-20 1.4816764e-18
1.076138e-21 2.913043e-20 6.9911095e-17 6.662499e-18 1.0919078e-20 4.6429173e-20 0.0049076555 0.0051072203
0.006149594 0.0052794064 0.0056464523 0.0060155126 0.0053624487 0.0055953716 0.004978293 -2.1694992e-26
2.1447083e-31 -4.5460096e-32 3.343098e-14 9.92614e-17 8.752761e-14 2.008256e-16 7.8411964e-11 1.3222017e-10
0.15366063 0.06832352 -0.29688835 0.3357331 -0.14046623 -0.18513806 0.41172898 -0.07995793
-0.03975648 0.295451 0.100696936 -0.09814252 -0.30158725 -0.31374252 -0.23949482 0.30055398
0.18443811 0.1461466 1.0925078e-14 5.539883e-19 2.5522559e-16 8.5454655e-16 3.2357862e-18 6.2268776e-19
1.824388e-17 2.3796368e-19 1.7197323e-19 0.0021018616 0.007304174 -0.00031636906 0.0064335736 0.008213052
0.0010259575 0.0068418286 0.0051441654 -0.0006320133 -0.37114152 -0.15989521 0.18023494 -0.48958954
00000000: d916 f5be f0e9 713e 7b1d 923e e685 b6bd
00000010: 8adc 1d3e 4dfd ae3d f273 283e 0494 02bd
00000020: 4525 8dbe cb87 1e8a fe52 4910 5857 7412
00000030: b357 5713 2f56 dd12 bffa 2116 daa8 2a17
00000040: 84fd f519 0480 6e18 7a82 bf3c caf4 bc3c
00000050: 8535 c03c 8921 bb3c 4e9f bc3c bc4b c13c
00000060: 30af c23c 2fe7 c13c 5619 c63c fb79 a6bd
00000070: fb4b a7be 2b0c c63e e75b 97bd 8412 8cbe
00000080: 9a3e cd3e 33a1 993d 063c eebd c070 433b
00000090: fb43 203a 4ae6 1c3a 9046 093a 6470 283a
000000a0: 111d 2c3a 16f4 0e3a 1bcc 373a 94b7 453a
000000b0: 0601 2c3a 6372 7836 37d7 6636 222f fd35
000000c0: 82d7 cd35 7fef 8335 8442 6835 59ad d735
000000d0: 6a38 5135 29af 1535 61cf 94bd bfc4 21be
000000e0: 4b44 3fbd 3734 9a3e 069e 223d d545 ff3b
000000f0: cd96 553e 7c8f 69bd b8c6 963c ac3f 1734
00000100: 9f5a 1e34 4c58 1234 5cda b033 6bac a433
00000110: 1b46 6333 8c3f 9f33 825d 8c33 0f9a 7231
00000120: 95ab 7fbe 7aec 5abe 79e4 81be 2e55 2c3e
00000130: b13b 8b3e 1d62 b73e 98c7 97bd e2a1 7a3d
00000140: 8248 22be 1c2e 203d b13c e53d 69e0 46bd
00000150: f2b2 633d 0827 da3c 43af 3bbc 9a77 033d
00000160: da24 b33c ebec d13c 96ac c63c 859c c43c
00000170: 0fdc cc3c 300e d63c ae14 bd3c 8857 c33c
00000180: 179f db3c 396c cc3c 3e5f d93c 2012 0000
00000190: 4fd8 de87 6abd 5322 be01 0080 5433 4312
000001a0: fdc3 0b26 b20c 0000 7fd8 c300 8f03 8722
000001b0: 3f02 8f0c 9f06 b50c 9dc1 ae0c d3d8 850c
000001c0: 40e2 9e0c 44ee 910c f5ae c60c f491 d60c
000001d0: d1a8 9d0c 5a77 563c 194a 753c 196e 713c
000001e0: 441a f73b ce6f 023c 8a03 2c3c a969 1c3c
000001f0: 520b 243c e5f5 2e3c 41a7 0b3e 733d 8c3e
00000200: dc2e f03e 3d4b 07bb b003 3a3e 90b2 9cbe
00000210: 74fa 17be 7c35 afbe 0cba 7abe 4efb 30be
00000220: c418 43bd 7e9c aabd b42d 88be ec57 afbc
00000230: 37b5 ba3e 3f0e 60bd cc27 393e 3110 d73e
00000240: 31d6 6821 3190 5022 6cb9 ff21 43b7 b821
00000250: a273 8422 13c8 3822 5dff 8f21 04fb 8922
00000260: bc01 0522 aa5c 11be 4689 eebc 70e7 94bd
00000270: 0150 0a3e 3b4f bc3e ee00 833e 1dc6 773d
00000280: da75 bcbe f33c b0bd 33dd 353e d985 b0be
00000290: 9bad c3be c147 0fbe 05b8 cc3d 7c61 4abe
000002a0: 0c4a 953e 0441 e53e efcc 6a3d d76a da38
000002b0: 50e6 6639 25bb 5939 63c9 2839 cde1 6f39
000002c0: bff0 5939 e801 1839 247d 4d39 ab05 f538
000002d0: db4d 133e 624f a73e e0b8 dabd adcb 5d3e
000002e0: cb2e 173e 401b 803e df34 44be 4023 b0be
000002f0: b72b 8abe 5700 7b1a 8014 2a1f 27a8 da21
00000300: 139f a21c 8790 091f 3a34 a124 86cd f522
00000310: 6c41 4e1e 6d41 5b1f 66d0 a03b 785a a73b
00000320: 8982 c93b dffe ac3b e005 b93b c71d c53b
00000330: 7bb7 af3b 6159 b73b f320 a33b 57db d694
00000340: 1433 8b0c d50a 6c8b 4c8f 1629 97e1 e424
00000350: 3b18 c529 4189 6725 036e ac2e ab60 112f
00000360: 3659 1d3e 34ed 8b3d c001 98be 35e5 ab3e
00000370: 61d6 0fbe d594 3dbe 24ce d23e fcc0 a3bd
00000380: b1d7 22bd 5a45 973e 323a ce3d f2fe c8bd
00000390: a569 9abe dca2 a0be 213e 75be 36e2 993e
000003a0: 58dd 3c3e 74a7 153e 08cf 4428 2c82 2321
000003b0: a620 9325 684e 7626 46c2 6e22 f5c8 3721
000003c0: 2545 a823 0e78 8c20 b807 4b20 63bf 093b
000003d0: da57 ef3b 56de a5b9 bad0 d23b 0990 063c
000003e0: 6c79 863a 6b31 e03b 6390 a83b b2ad 25ba
000003f0: 4306 bebe 92bb 23be 828f 383e 7bab fabe

conv1.0.bias f4 [32]
0.33577082 8.101e-42 1.033283e-05 0.26526037 7.18e-42 -8.383e-42 0.015915055 2.506e-42
0.1576936 -0.0005390242 -2.7991306e-10 -3.272e-42 -1.710213e-32 2.618e-42 0.0903252 0.036194723
5.46e-42 0.07495101 0.16228606 6.533e-42 0.15325531 8.401e-42 3.041e-42 3.3105156e-31
0.0010797885 0.13475196 -1.5242e-41 -8.832255e-35 0.36687112 -6.524e-42 -0.037629664 -2.01e-42
00000000: 27ea ab3e 9516 0000 2b5b 2d37 35d0 873e
00000010: 0414 0000 5e17 0080 4a60 823c fc06 0000
00000020: 6e7a 213e 4d4d 0dba 43e2 99af 1f09 0080
00000030: 4399 b18a 4c07 0000 6bfc b83d eb40 143d
00000040: 380f 0000 ea7f 993d 512e 263e 3612 0000
00000050: f6ee 1c3e 6b17 0000 7a08 0000 60dd d60c
00000060: b187 8d3a 6bfc 093e 7d2a 0080 36cd ea86
00000070: 88d6 bb3e 3012 0080 9021 1abd 9a05 0080

conv2.convs.0.0.weight f4 [32, 32, 3, 3]
0.027585698 0.14788009 0.026459845 -0.07579184 0.07616987 -0.009272582 0.008030632 -0.2538985
0.106627055 1.5057e-41 2.2593e-41 1.3172e-41 4.2716e-41 -3.8697e-41 3.972e-41 4.3477e-41
-1.126e-41 -5.074e-42 -1.9836238e-05 1.3643496e-05 5.1318716e-06 1.5534799e-05 -5.00175e-06 -2.2722028e-05
1.0210691e-05 8.2323695e-06 4.003577e-05 -0.07910942 -0.031736374 0.055693366 -0.09821388 0.12791343
-0.093420595 0.042335916 -0.0076675583 0.11518772 3.678e-42 6.826e-42 -2.016e-42 5.176e-42
7.67e-43 4.116e-42 -2.044e-42 3.175e-42 4.427e-42 -7.33e-43 7.22e-43 -4.565e-42
2.14e-43 -3.611e-42 -2.06e-43 6.438e-42 -6.23e-42 3.209e-42 0.0035691874 -0.06365759
-0.09210253 -0.022475814 0.060749896 -0.053768188 0.0060007903 0.027217874 4.2655694e-05 1.829e-42
-1.853e-42 2.213e-42 -5.408e-42 4.368e-42 -3.542e-42 2.158e-42 4.317e-42 6.198e-42
-0.054569937 -0.118294634 -0.081824906 -0.045317512 0.04008521 -0.15753323 0.10716558 0.03437377
0.105999656 -0.0041770656 -0.004912497 0.0023031782 -0.008980941 0.0045401873 -0.007048559 0.005818524
-0.012683659 -0.00065035216 0.005628622 -0.001303869 -0.005500964 0.00011072917 0.0007854449 -0.0013183799
0.0018571814 0.005711606 -0.00018839155 1.1007e-41 1.3475e-41 1.1006e-41 6.454e-42 -8.119e-42
-9.953e-42 8.832e-42 -1.771e-42 2.09e-42 4.0104524e-33 8.057822e-33 -2.3921766e-33 4.66736e-34
2.7511053e-33 6.7597505e-34 -4.971998e-34 -1.6902329e-33 -6.746168e-34 0.00011871902 0.00011108389 -0.00021461565
0.00029728765 7.578873e-05 9.9048426e-05 3.433003e-05 -0.0004942227 -2.3299588e-05 -0.10603036 0.16520084
0.11283399 -0.060585555 0.20899673 -0.07928387 0.010795492 -0.010253488 0.160568 -0.070964254
0.0040631834 0.05627228 0.03224061 0.033181436 0.048608597 0.020115 -0.01901223 0.15938438
-6.687e-42 3.374e-42 8.053e-42 4.749e-42 -8.811e-42 -9.251e-42 5.9e-42 4.515e-42
-3.442e-42 0.045865826 -0.08625429 -0.11122631 -0.05928431 0.051231965 -0.21605735 -0.07799039
-0.024669783 0.1192001 -0.18539654 0.05185981 -0.15728152 -0.01959924 -0.07826842 -0.10203204
0.08939156 0.09420855 -0.038730368 -2.929e-42 -3.771e-42 2.137e-42 -4.99e-43 -7.43e-43
-1.51e-43 5.284e-42 4.801e-42 -1.212e-42 -0.09024456 -0.09195092 0.031064129 -0.0011609672
0.08424599 -0.17069717 -0.044617467 -0.10533465 0.13386238 -2.962e-42 1.5e-43 -1.543e-42
-6.233e-42 4.197e-42 3.222e-42 -2.801e-42 -3.744e-42 -1.06e-42 9.5738256e-21 1.807287e-15
9.8556916e-17 -2.2304638e-28 6.240054e-19 7.5087765e-19 5.8305984e-28 1.6944854e-27 5.4522385e-19 4.1690957e-31
1.0424674e-30 -3.3144465e-32 -2.2647121e-30 3.6821478e-18 2.3763204e-22 1.1250204e-30 2.4084458e-25 8.0838603e-23
-0.027749283 -0.077251986 -0.07427468 -0.104346834 -0.1533308 -0.04302088 0.0353816 0.019073967
-0.1462742 -0.0037093055 -0.023035225 0.013748509 -0.02988537 -0.14659229 -0.09122472 -0.030792397
-0.1263422 0.06161358 6.7554e-41 -3.5443e-41 5.2815e-41 -1.6097e-41 6.7918e-41 -4.3321e-41
5.75e-42 3.4775e-41 3.1419e-41 -3.3246496e-07 -1.8902477e-07 -3.7376527e-08 -5.9115912e-08 -2.4481688e-08
-3.5319494e-09 -7.997929e-08 -6.562824e-09 7.49782e-09 -0.12893708 0.12796043 -0.02695209 0.0162452
00000000: 67fb e13c e16d 173e 51c2 d83c c138 9bbd
00000010: f3fe 9b3d 07ec 17bc e992 033c fcfe 81be
00000020: 495f da3d f929 0000 fb3e 0000 b824 0000
00000030: 1377 0000 df6b 0080 b96e 0000 3279 0000
00000040: 631f 0080 250e 0080 ff65 a6b7 5ee6 6437
00000050: 7132 ac36 ba50 8237 b5d4 a7b6 2f9b beb7
00000060: 954e 2b37 c21d 0a37 15ec 2738 1f04 a2bd
00000070: 00fe 01bd ba1e 643d 5c24 c9bd bdfb 023e
00000080: 4c53 bfbd 6d68 2d3d 2440 fbbb 8ae7 eb3d
00000090: 410a 0000 0713 0000 9f05 0080 6e0e 0000
000000a0: 2302 0000 790b 0000 b305 0080 da08 0000
000000b0: 570c 0000 0b02 0080 0302 0000 ba0c 0080
000000c0: 9900 0000 110a 0080 9300 0080 f211 0000
000000d0: 5e11 0080 f208 0000 07e9 693b e95e 82bd
000000e0: 40a0 bcbd 331f b8bc e2d4 783d 083c 5cbd
000000f0: 47a2 c43b 05f8 de3c 34e9 3238 1905 0000
00000100: 2a05 0080 2b06 0000 130f 0080 2d0c 0000
00000110: e009 0080 0406 0000 090c 0000 4711 0000
00000120: ba84 5fbd 7544 f2bd d193 a7bd db9e 39bd
00000130: 6430 243d 6450 21be a179 db3d 83cb 0c3d
00000140: 5916 d93d c4df 88bb 03f9 a0bb ebf0 163b
00000150: cc24 13bc dac5 943b 99f7 e6bb 51a9 be3b
00000160: 1fcf 4fbc 657c 2aba 4e70 b83b 95e6 aaba
00000170: 6e41 b4bb 4537 e838 51e6 4d3a 7dcd acba
00000180: ab6c f33a 6c28 bb3b f98a 45b9 af1e 0000
00000190: 9025 0000 ae1e 0000 fe11 0000 a216 0080
000001a0: bf1b 0080 9f18 0000 f004 0080 d305 0000
000001b0: 7296 a609 bb5a 270a f8bb 4689 8219 1b08
000001c0: 8a8d 6409 99a1 6008 1539 2588 476b 0c89
000001d0: 0d2e 6088 caf8 f838 b6f5 e838 730a 61b9
000001e0: 46dd 9b39 c4f0 9e38 38b8 cf38 97fd 0f38
000001f0: b98e 01ba 7c73 c3b7 7226 d9bd 692a 293e
00000200: 8215 e73d 8f28 78bd 3d03 563e 955f a2bd
00000210: 93df 303c 3ffe 27bc f06b 243e b555 91bd
00000220: 7424 853b c37d 663d bb0e 043d 42e9 073d
00000230: cf19 473d 36c8 a43c 89bf 9bbc a935 233e
00000240: a412 0080 6809 0000 7316 0000 3d0d 0000
00000250: 9018 0080 ca19 0080 7210 0000 960c 0000
00000260: 9809 0080 cedd 3b3d 17a6 b0bd 9fca e3bd
00000270: 1bd4 72bd 9cd8 513d 233e 5dbe 6db9 9fbd
00000280: 4918 cabc 2f1f f43d 97d8 3dbe f46a 543d
00000290: 680e 21be 968e a0bc 324b a0bd 2df6 d0bd
000002a0: ec12 b73d 6af0 c03d bca3 1ebd 2a08 0080
000002b0: 830a 0080 f505 0000 6401 0080 1202 0080
000002c0: 6c00 0080 bb0e 0000 620d 0000 6103 0080
000002d0: 24d2 b8bd c450 bcbd 337a fe3c 982b 98ba
000002e0: 2989 ac3d 3dcb 2ebe cec0 36bd b1b9 d7bd
000002f0: 3813 093e 4208 0080 6b00 0000 4d04 0080
00000300: 6011 0080 b30b 0000 fb08 0000 cf07 0080
00000310: 700a 0080 f402 0080 2ed8 341e 903a 0227
00000320: bc41 e324 585f 8d91 842c 3821 b69e 5d21
00000330: 6fc7 3812 3f40 0613 f3eb 2021 7e4b 070d
00000340: 6726 a90d 8d18 2c8b 3bbc 378e e7d8 8722
00000350: c7a3 8f1b 858b b60d 5913 9516 ac74 c31a
00000360: 7752 e3bc 4a36 9ebd 531d 98bd cbb3 d5bd
00000370: c002 1dbe aa36 30bd 4cec 103d 0241 9c3c
00000380: e7c8 15be d217 73bb 5eb4 bcbc 6d41 613c
00000390: 2ad2 f4bc 4a1c 16be 07d4 babd 5640 fcbc
000003a0: da5f 01be 855e 7c3d 50bc 0000 cd62 0080
000003b0: 3a93 0000 df2c 0080 54bd 0000 c378 0080
000003c0: 0710 0000 f060 0000 9557 0000 a37d b2b4
000003d0: bcf6 4ab4 ed87 20b3 a2e6 7db3 cd4b d2b2
000003e0: b6b6 72b1 14c1 abb3 367f e1b1 c3cf 0032
000003f0: 1508 04be 0f08 033e a1ca dcbc a714 853c

conv2.convs.0.1.weight f4 [32]
0.2398709 0.2559486 0.20046127 0.13121705 0.3373076 -1.9742218e-11 1.9140047e-28 0.21647044
0.19580324 0.28579646 0.24389781 -0.0064806975 0.2376699 0.03987923 0.15592305 0.27020466
0.007295224 0.060667645 0.60156995 0.23586465 0.18778203 0.25263283 0.3583331 0.30381924
0.4097648 0.3100918 0.1438458 0.50956494 0.21642323 0.2096335 0.1754214 0.17454638
00000000: b8a0 753e b20b 833e b845 4d3e c35d 063e
00000010: 95b3 ac3e 86a7 adad 01a1 7211 6daa 5d3e
00000020: a580 483e ea53 923e 59c0 793e 085c d4bb
00000030: bd5f 733e 6758 233d 4baa 1f3e 4458 8a3e
00000040: c60c ef3b a37e 783d 7d00 1a3f 8186 713e
00000050: ef49 403e 1759 813e 7077 b73e 328e 9b3e
00000060: b1cc d13e 5ac4 9e3e 504c 133e d972 023f
00000070: 0d9e 5d3e 2aaa 563e aba1 333e 49bc 323e

conv2.convs.0.1.bias f4 [32]
-0.17660438 -0.012785372 -0.016059114 -0.10747638 0.080685414 -3.3900756e-14 2.600917e-27 -0.041938163
-0.027194291 -0.051862188 -0.17183968 0.02728508 0.024759991 -0.059506252 -0.033034503 -0.037450567
-0.07204221 -0.055904366 -0.18691918 -0.09606751 0.10448324 0.10448137 0.09893802 -0.055358063
0.08338887 -0.2837092 -0.0049875514 0.16551332 -0.11567665 0.013470504 -0.111998916 -0.065971136
00000000: c7d7 34be bd79 51bc 678e 83bc 941c dcbd
00000010: 653e a53d e9ac 18a9 dd10 4e13 5ac7 2bbd
00000020: 90c6 debc 726d 54bd bef6 2fbe f684 df3c
00000030: 77d5 ca3c d4bc 73bd 304f 07bd c465 19bd
00000040: de8a 93bd fafb 64bd be67 3fbe 0bbf c4bd
00000050: 4ffb d53d 54fa d53d 04a0 ca3d 23bf 62bd
00000060: c9c7 aa3d 5542 91be 9d6e a3bb 537c 293e
00000070: e1e7 ecbd 64b3 5c3c b05f e5bd e01b 87bd

conv2.convs.0.1.running_mean f4 [32]
-0.38752165 3.0395513 -5.5670185 0.46666023 -0.829109 -2.2713292e-16 -6.26694e-13 -2.9325168
0.2719253 -2.0209398 -2.9254365 -1.6603582 -5.4231477 -0.3241775 1.8631389 1.0518196
-0.6576099 -2.1530554 -0.8758088 -10.764265 -2.4923358 -3.5595226 -1.5175103 1.3271159
2.4604847 0.5807193 -4.335494 -2.2671072 4.336784 -0.22672667 -4.200615 0.38126624
00000000: 3d69 c6be 0288 4240 0425 b2c0 17ee ee3e
00000010: 7d40 54bf e7ee 82a5 1066 30ab 5bae 3bc0
00000020: cb39 8b3e 1457 01c0 5a3a 3bc0 9e86 d4bf
00000030: 6d8a adc0 98fa a5be 567b ee3f 06a2 863f
00000040: 1f59 28bf a9cb 09c0 0135 60bf 6e3a 2cc1
00000050: 6e82 1fc0 38cf 63c0 c73d c2bf efde a93f
00000060: 9578 1d40 05aa 143f 5ebc 8ac0 4918 11c0
00000070: efc6 8a40 092b 68be 706b 86c0 5435 c33e

conv2.convs.0.1.running_var f4 [32]
6.105933 8.915703 10.721505 5.6953764 14.911372 8.850102e-26 4.29165e-19 7.885529
11.597374 10.373238 9.373021 2.5126846 9.519501 0.46021962 11.052127 7.8697557
0.19965474 1.8448569 12.217522 12.112271 13.727096 11.80917 14.394271 9.869764
15.887049 6.8348813 8.980453 17.782887 8.374574 12.017376 9.219328 6.5882416
00000000: ce63 c340 b8a6 0e41 498b 2b41 8640 b640
00000010: fb94 6e41 301e db15 9555 fd20 4156 fc40
00000020: d88e 3941 c8f8 2541 e5f7 1541 d3cf 2040
00000030: e04f 1841 e8a1 eb3e 83d5 3041 0ad5 fb40
00000040: 4b72 4c3e 4524 ec3f f87a 4341 ddcb 4141
00000050: 2fa2 5b41 5cf2 3c41 ef4e 6641 8eea 1d41
00000060: 5a31 7e41 59b7 da40 efaf 0f41 5a43 8e41
00000070: 41fe 0541 2c47 4041 5e82 1341 e0d2 d240

conv2.convs.1.0.weight f4 [32, 32, 3, 3]
0.024855306 0.1292848 0.021760432 0.00035024807 0.071668066 -0.018788857 -0.06538281 0.043007
0.0648439 2.982e-42 -2.029e-41 -1.1691e-41 -2.5513e-41 -2.2936e-41 -2.1106e-41 1.3538e-41
-1.2665e-41 1.0286e-41 8.249262e-05 4.4619665e-05 9.689143e-05 -2.4221992e-05 -5.5999108e-06 -1.5038636e-05
-4.47755e-05 -0.0007788797 7.582907e-05 0.020905947 0.17979307 -0.054920528 0.038247515 -0.00042848816
-0.1143523 0.017613988 -0.06916503 0.08026457 6.667e-42 -5.052e-42 7.95e-43 3.456e-42
2.829e-42 2.661e-42 5.063e-42 5.614e-42 -2.403e-42 -2.833e-42 1.93e-43 -5.942e-42
3.138e-42 5.183e-42 -6.344e-42 6.746e-42 1.073e-42 3.506e-42 0.04591292 -0.0042854357
0.030496169 -0.010001769 0.057160046 0.059633367 0.037416458 0.033155948 -0.022645606 -1.585e-42
7.63e-42 6.789e-42 -4.892e-42 -6.314e-42 7.717e-42 5.273e-42 -2.228e-42 4.134e-42
-0.0985889 0.04434381 -0.031972766 0.132606 0.014384522 -0.016684778 -0.09899561 0.035842214
-0.08287433 0.0049042413 0.0024612898 0.010949838 -0.011146039 0.0061496194 -0.0016169018 0.0072084116
-0.00065507594 8.352e-05 0.0004361549 -0.0029343632 -0.005370861 0.003964557 0.0144831035 0.0041584536
0.0030632592 0.0043457346 0.0005046256 5.947e-42 -6.405e-42 6.317e-42 5.743e-42 -8.364e-42
-5.105e-42 2.592e-42 -1.2072e-41 -7.77e-42 -2.2394173e-34 5.046044e-33 -3.874703e-33 -2.6626382e-33
1.505046e-33 3.916658e-34 5.6622123e-33 2.2891593e-34 -1.4364314e-34 -3.145381e-05 -3.2626638e-05 -1.0753298e-06
5.0260012e-05 8.8000976e-05 3.7278412e-05 -7.2653864e-05 -1.22000365e-05 -7.495553e-05 -0.038624223 -0.085643485
-0.04960629 0.0067162164 0.21844898 0.14536959 -0.025668265 0.28789797 0.053508125 0.032934368
-0.11451981 -0.032276507 -0.10159962 0.041851334 -0.035381675 0.10133633 0.19867615 -0.07595811
4.556e-42 -1.582e-42 -1.588e-42 -3.973e-42 -3.62e-43 9.527e-42 1.049e-41 2.745e-42
1.185e-42 -0.014832895 0.04328081 0.13343275 0.053023946 0.118463725 -0.08032376 -0.101445444
-0.17901075 0.038417045 -0.18512525 -0.11901511 -0.109631605 -0.040689625 0.05724989 0.10295726
-0.045897294 0.12657271 0.10808459 -3.5211177e-24 -1.9319639e-27 -5.987705e-27 9.661381e-26 -8.3065876e-29
-4.569049e-26 6.1725146e-25 -2.4432942e-28 4.592853e-27 -0.062055677 0.018407363 0.13305078 -0.043130137
-0.039777685 -0.011164505 -0.10675448 0.06703036 -0.022759723 2.335e-42 -4.037e-42 3.645e-42
-2.5612633e-37 3.7479283e-35 -4.861e-42 1.667137e-21 9.478121e-32 5.5063976e-21 -1.787451e-09 -1.9130991e-10
-1.2616164e-08 -1.2543569e-16 -1.6733966e-17 -4.487337e-12 -4.6649425e-15 -1.0939655e-12 -8.047962e-14 -4.245758e-23
-1.3302891e-22 -1.30466565e-23 4.208275e-31 7.959955e-31 1.1847116e-30 6.3762284e-31 -2.349033e-30 1.6801723e-30
0.023409938 -0.020316182 0.0143784 0.063498914 -0.04328016 0.0022483382 -0.033651046 0.055246744
-0.064420246 -0.11286968 -0.16469595 0.055237256 0.059586722 0.05041848 -0.13550042 -0.0588821
0.059854064 0.034292683 -3.2952e-41 -1.5672e-41 4.9617e-41 2.0546e-41 -3.253e-41 -1.3475e-41
7.3679e-41 -5.9018e-41 3.5065e-41 3.3969867e-05 8.4587606e-07 2.1604274e-05 1.3816475e-05 3.1972763e-06
3.945811e-06 3.1407108e-05 2.0237412e-06 1.49381885e-05 0.13638364 -0.12079464 -0.37221172 -0.05454517
00000000: 5b9d cb3c 3c63 043e ef42 b23c 80a1 b739
00000010: b5c6 923d 17eb 99bc 6ce7 85bd 1c28 303d
00000020: e1cc 843d 5008 0000 8f38 0080 9720 0080
00000030: 1f47 0080 f03f 0080 d63a 0080 bd25 0000
00000040: 4e23 0080 ac1c 0000 e3ff ac38 0026 3b38
00000050: 3132 cb38 5530 cbb7 dee6 bbb6 734e 7cb7
00000060: 54cd 3bb8 bb2d 4cba 6c06 9f38 f342 ab3c
00000070: ad1b 383e 59f4 60bd 6da9 1c3d b5a6 e0b9
00000080: 8a31 eabd 364b 903c 65a6 8dbd c061 a43d
00000090: 9612 0000 150e 0080 3702 0000 a209 0000
000000a0: e307 0000 6b07 0000 1d0e 0000 a60f 0000
000000b0: b306 0080 e607 0080 8a00 0000 9010 0080
000000c0: bf08 0000 730e 0000 af11 0080 ce12 0000
000000d0: fe02 0000 c609 0000 300f 3c3d d76c 8cbb
000000e0: 1ad3 f93c 76de 23bc a720 6a3d 1e42 743d
000000f0: 0042 193d 88ce 073d 4783 b9bc 6b04 0080
00000100: 4515 0000 ed12 0000 a30d 0080 9a11 0080
00000110: 8315 0000 b30e 0000 3606 0080 860b 0000
00000120: fae8 c9bd dba1 353d e0f5 02bd dec9 073e
00000130: 0fad 6b3c 84ae 88bc 36be cabd 49cf 123d
00000140: 04ba a9bd c2b3 a03b 974d 213b f366 333c
00000150: e09d 36bc bf82 c93b 39ee d3ba 8a34 ec3b
00000160: 67b9 2bba 7527 af38 b8ab e439 724e 40bb
00000170: 0cfe afbb 1de9 813b 8a4a 6d3c a343 883b
00000180: f6c0 483b aa66 8e3b da48 043a 9410 0000
00000190: db11 0080 9c11 0000 0210 0000 5117 0080
000001a0: 3b0e 0080 3a07 0000 a721 0080 a915 0080
000001b0: b6d5 9487 be9a d109 e9f2 a089 0d34 5d89
000001c0: 9411 fa08 3e27 0208 f832 eb09 0724 9807
000001d0: 3aef 3e87 45ed 03b8 96d8 08b8 0d54 90b5
000001e0: 47ce 5238 2a8d b838 645b 1c38 bf5d 98b8
000001f0: c2ae 4cb7 7231 9db8 6f34 1ebd da65 afbd
00000200: f72f 4bbd b513 dc3b 17b1 5f3e c4db 143e
00000210: 4146 d2bc 5d67 933e 562b 5b3d 30e6 063d
00000220: 5d89 eabd 5f34 04bd 7613 d0bd 4e6c 2b3d
00000230: 60ec 10bd 6c89 cf3d c371 4b3e ed8f 9bbd
00000240: b30c 0000 6904 0080 6d04 0080 130b 0080
00000250: 0201 0080 8f1a 0000 3e1d 0000 a707 0000
00000260: 4e03 0000 ac05 73bc 3847 313d 98a2 083e
00000270: a32f 593d 1c9d f23d c980 a4bd a1c2 cfbd
00000280: 984e 37be 315b 1d3d 7991 3dbe 32be f3bd
00000290: 8986 e0bd 2aaa 26bd dc7e 6a3d 42db d23d
000002a0: cdfe 3bbd 479c 013e 745b dd3d 7637 8898
000002b0: e210 1993 8b32 ed93 4734 ef15 d698 d290
000002c0: 943f 6295 b307 3f17 b7dc 9a91 10f1 b513
000002d0: 182e 7ebd 0acb 963c 773e 083e 3aa9 30bd
000002e0: eded 22bd 54eb 36bc 18a2 dabd 3747 893d
000002f0: 9972 babc 8206 0000 410b 0080 290a 0000
00000300: 804f ae82 2846 4706 8d0d 0080 3dee fb1c
00000310: eb10 f60b 9c06 d01d 57aa f5b0 f458 52af
00000320: 7abe 58b2 159e 10a5 f657 9aa3 57e2 9dac
00000330: 8012 a8a7 43f6 99ab 5839 b5a9 f04f 4d9a
00000340: 74d2 209b ea5b 7c99 fb90 080d 5c28 810d
00000350: ff3a c00d a2eb 4e0d 8293 3e8e d04f 080e
00000360: 33c6 bf3c 1f6e a6bc 6193 6b3c b80b 823d
00000370: 8946 31bd db58 133b aed5 09bd 694a 623d
00000380: c3ee 83bd 3828 e7bd 0ea6 28be 7640 623d
00000390: 3511 743d 9c83 4e3d 9fc0 0abe 5b2e 71bd
000003a0: 8929 753d 7c76 0c3d db5b 0080 b02b 0080
000003b0: 508a 0000 4639 0000 ae5a 0080 9025 0080
000003c0: 63cd 0000 85a4 0080 bf61 0000 de7a 0e38
000003d0: 2910 6335 d33a b537 4fcd 6737 ca90 5636
000003e0: 4266 8436 20bb 0338 9ccf 0736 089f 7a37
000003f0: 27a8 0b3e 2e63 f7bd 8992 bebe c26a 5fbd

conv2.convs.1.1.weight f4 [32]
0.19840613 0.1629909 0.32438257 0.15878607 0.30450585 -4.490511e-15 3.3419846e-30 0.008127473
0.22863905 0.10222342 0.281257 0.39098477 0.40937284 0.00020152012 0.23375368 0.17539632
0.2148274 0.0022944831 0.30116802 0.11822739 0.36462757 0.24421506 0.22179756 0.20910674
0.15494882 0.29651797 0.4033678 0.18604735 0.29123107 0.3743566 0.21349189 0.0018884697
00000000: fa2a 4b3e 16e7 263e 7915 a63e d198 223e
00000010: 31e8 9b3e a7c9 a1a7 2791 870e 1829 053c
00000020: 5b20 6a3e 835a d13d eb00 903e 282f c83e
00000030: 5199 d13e 254f 5339 205d 6f3e 189b 333e
00000040: b7fb 5b3e 0a5f 163b b232 9a3e 3421 f23d
00000050: 77b0 ba3e 8313 7a3e e61e 633e 1420 563e
00000060: e7aa 1e3e 34d1 973e 3986 ce3e 3283 3e3e
00000070: 3d1c 953e abab bf3e 9e9d 5a3e 8786 f73a

conv2.convs.1.1.bias f4 [32]
-0.044013992 -0.04351868 -0.17567362 -0.13619216 -0.1246581 1.1518758e-20 3.2205942e-30 -0.059083242
-0.14910041 0.04233684 -0.038548462 0.0023002408 -0.117682174 -9.371895e-05 -0.24228092 -0.016646193
-0.049948566 -0.034741513 -0.0186303 0.06490556 -0.14047725 -0.086609825 -0.03023772 -0.1183271
-0.08850408 -0.0013860404 -0.13783121 -0.10469491 -0.06351559 -0.032681882 -0.063684754 -0.036435355
00000000: 0448 34bd a540 32bd c9e3 33be f575 0bbe
00000010: bf4c ffbd 4c95 591e 90a4 820e 4501 72bd
00000020: c7ad 18be 6569 2d3d fee4 1dbd a3bf 163b
00000030: 5a03 f1bd fa8a c4b8 7d18 78be 995d 88bc
00000040: de96 4cbd 1e4d 0ebd 929e 98bc 35ed 843d
00000050: 45d9 0fbe 7e60 b1bd 18b5 f7bc 7b55 f2bd
00000060: a141 b5bd ccab b5ba a023 0dbe 496a d6bd
00000070: 7614 82bd 70dd 05bd 276d 82bd 3d3d 15bd

conv2.convs.1.1.running_mean f4 [32]
-2.0978446 -2.0928755 -10.346447 -4.771142 -2.4739182 -3.7517973e-13 -4.587695e-13 -0.78728324
-2.392634 -2.7763045 -1.9607987 -0.42302772 -4.3822875 5.214942e-13 -0.6351949 -0.73015493
-1.4133625 0.7243525 -1.3767767 -3.8412144 4.073109 4.356148 1.6093295 1.8428965
-3.2765808 3.1605396 2.3082914 -0.90703356 -7.5208263 1.1214892 -9.798809 0.61175936
00000000: 1643 06c0 acf1 05c0 0c8b 25c1 32ad 98c0
00000010: ad54 1ec0 1935 d3aa d421 01ab 658b 49bf
00000020: ea20 19c0 f9ae 31c0 74fb fabf 1797 d8be
00000030: b33b 8cc0 9ec9 122b 229c 22bf 6feb 3abf
00000040: 10e9 b4bf 2a6f 393f 383a b0bf 75d6 75c0
00000050: e956 8240 9065 8b40 82fe cd3f 08e4 eb3f
00000060: 80b3 51c0 4846 4a40 0cbb 1340 5a33 68bf
00000070: 9caa f0c0 f58c 8f3f ecc7 1cc1 439c 1c3f

conv2.convs.1.1.running_var f4 [32]
12.044562 5.8359327 19.26917 6.426489 6.8587008 2.4740636e-19 2.413811e-19 0.28324452
7.8969913 6.224896 16.501041 10.372381 13.027577 3.7226736e-19 5.283182 7.8738823
5.7669525 0.10627195 10.367948 8.977693 13.24539 11.24702 6.693653 3.6514332
5.3432393 9.01928 10.880775 7.4871345 7.8522263 7.205831 15.331863 0.073969975
00000000: 87b6 4041 f6bf ba40 4327 9a41 cca5 cd40
00000010: 7a7a db40 fe0a 9220 7b7c 8e20 6d05 913e
00000020: 27b4 fc40 5932 c740 2202 8441 46f5 2541
00000030: f570 5041 74bf db20 d40f a940 d8f6 fb40
00000040: e08a b840 1ca5 d93d 1de3 2541 a1a4 0f41
00000050: 1eed 5341 cbf3 3341 6832 d640 15b1 6940
00000060: d1fb aa40 f94e 1041 a817 2e41 9b96 ef40
00000070: 7045 fb40 2b96 e640 504f 7541 927d 973d

conv2.fc.0.weight f4 [32, 32, 1, 1]
-1.7878e-41 1.5348e-41 1.6694e-41 -2.0948e-41 -1.3869e-41 2.38e-42 -3.4606245e-07 8.486e-42
2.3584e-41 -1.2514e-41 1.379e-41 -2.02e-42 -1.483e-41 1.1499e-41 1.4855e-41 -2.4748e-41
5.878e-42 2.1478e-41 1.6297e-41 3.933e-42 1.9027e-41 -3.512e-42 1.668e-41 -1.7976e-41
-1.404e-42 -1.6266e-41 1.0192e-41 1.3548e-41 4.06e-43 1.8203e-41 3.674e-42 -1.9161e-41
-0.10431607 -0.013890111 0.035166405 0.0065076626 0.052244682 5.3168278e-20 -1.8667082e-28 -0.005045927
-0.070067056 -0.011428805 0.01999515 -0.10542922 -0.08687695 -0.0057362947 -0.051283285 -0.06828298
-0.021029226 -0.0019429396 -0.18143478 0.067585126 0.018548496 0.03917831 0.0032191107 0.0049743997
-0.03958692 -0.09760874 0.01596727 -0.114892036 -0.05466922 -0.06942051 0.04198983 0.021379156
1.3248e-13 -1.1700519e-13 -5.136377e-13 -1.5810871e-14 -4.1719778e-14 5.646323e-19 6.7426696e-14 1.0418885e-13
-3.8907974e-14 7.3527995e-13 -7.786626e-14 2.937748e-13 -9.4546183e-14 -1.7392032e-15 -1.9043861e-13 1.5676783e-13
-3.1055848e-08 -9.458372e-06 4.8588336e-13 -1.2736425e-13 -1.5752296e-13 2.293334e-14 -1.4019133e-13 4.248964e-13
4.964419e-13 -1.9928101e-13 1.1991554e-13 8.560609e-14 1.3455583e-13 1.1529762e-13 5.441348e-13 -9.308831e-14
1.557e-42 -8.212e-42 1.457e-42 -8.607e-42 -2.752e-42 -4.205e-42 -8.647054e-14 9.278e-42
2.688e-42 1.084e-41 -3.283e-42 -2.117e-42 8.467e-42 -6.952e-42 3.086e-42 -8.142e-42
-9.903e-42 -1.2748e-41 -1.0756e-41 5.23e-42 6.702e-42 5.06e-43 4.846e-42 2.185e-42
8.663e-42 -1.113e-42 -4.295e-42 8.77e-42 -5.431e-42 4.826e-42 -8.544e-42 -8.185e-42
-1.164e-42 3.4601e-41 7.4887e-41 3.1944e-41 1.8164e-41 -4.817e-41 -7.355061e-28 1.3139e-41
3.3295e-41 8.055e-42 1.6135e-41 -2.6029e-41 -4.8268e-41 -8.1414e-41 3.3462e-41 1.685e-41
5.321e-42 9.223e-41 -3.2583e-41 1.3216e-41 3.9336e-41 -6.8441e-41 4.8306e-41 2.5223e-41
-6.1349e-41 -3.0439e-41 -4.8472e-41 4.6688e-41 1.1991e-41 -4.8478e-41 2.8612e-41 -7.2088e-41
-0.09383325 0.028789245 0.017454796 -0.02583709 -0.0075161704 -2.7792832e-20 -6.077457e-29 -0.042957153
-0.05635039 0.0076968386 0.026840672 -0.16611105 -0.11427385 -0.0068291565 -0.052947305 -0.047156427
-0.032941893 -0.0040425155 -0.13501954 0.045184974 0.051479124 0.052269798 0.015805997 -0.024982719
-0.0158685 -0.10182834 0.019691518 -0.0846459 -0.06925809 -0.06667352 0.012384582 0.01664186
0.036192145 -0.035276074 0.02234343 0.007866536 0.0044214656 -6.653133e-22 -2.9057514e-28 0.0028708905
-0.0052620335 -0.0013813876 0.06632298 0.09583264 0.039062705 0.0048060445 -0.038214684 0.09051127
0.02364883 -0.00917912 0.0684222 0.015747337 0.0044477414 -0.045434166 0.19265531 -0.07185732
0.041439865 0.0817297 0.0019445266 0.16603026 0.10057071 0.06700952 0.028267851 -0.014685813
-9.026e-42 -5.188e-42 2.03e-43 6.805e-42 6.02e-42 9.1897e-41 -7.397771e-15 2.13e-43
9.145e-42 -1.0651e-41 5.891e-42 -8.11e-42 -5.28e-43 9.15e-43 -4.56e-42 5.555e-42
1.99e-42 8.743e-42 -2.992e-42 6.666e-42 4.535e-42 -7.671e-42 -4.343e-42 -7.986e-42
-5.104e-42 -6.936e-42 -8.404e-42 5.768e-42 -5.99e-42 7.365e-42 2.948e-42 -6.737e-42
00000000: d631 0080 c92a 0000 892e 0000 653a 0080
00000010: a926 0080 a206 0000 76ca b9b4 a817 0000
00000020: be41 0000 e222 0080 7126 0000 a205 0080
00000030: 5729 0080 0e20 0000 6929 0000 fd44 0080
00000040: 6310 0000 df3b 0000 6e2d 0000 f70a 0000
00000050: 0a35 0000 ca09 0080 7f2e 0000 1c32 0080
00000060: ea03 0080 582d 0080 691c 0000 c425 0000
00000070: 2201 0000 be32 0000 3e0a 0000 6a35 0080
00000080: aaa3 d5bd 5993 63bc a60a 103d 3b3e d53b
00000090: 85fe 553d 8114 7b1f 25a2 6c91 4e58 a5bb
000000a0: 517f 8fbd e23f 3bbc decc a33c 46eb d7bd
000000b0: 8bec b1bd 87f7 bbbb 6c0e 52bd f2d7 8bbd
000000c0: 7c45 acbc 3caa feba 0aca 39be 126a 8a3d
000000d0: 04f3 973c 7079 203d b7f7 523b 4a00 a33b
000000e0: e525 22bd 17e7 c7bd cbcd 823c 844c ebbd
000000f0: d5ec 5fbd 572c 8ebd 87fd 2b3d 5723 af3c
00000100: c328 152a 73bc 03aa 7f93 10ab 6369 8ea8
00000110: a1e3 3ba9 69a6 2621 d8d4 9729 c89c ea29
00000120: d739 2fa9 81f6 4e2b d856 afa9 6961 a52a
00000130: 2ae6 d4a9 46a5 faa6 316a 56aa 4081 302a
00000140: 4462 05b3 66af 1eb7 96c3 082b 3f66 0faa
00000150: e75a 31aa af90 ce28 66d7 1daa 0632 ef2a
00000160: 69bc 0b2b d75e 60aa 4d03 072a 8dc4 c029
00000170: 147f 172a 47d0 012a 0b29 192b c29d d1a9
00000180: 5704 0000 e416 0080 1004 0000 fe17 0080
00000190: ac07 0080 b90b 0080 dfb6 c2a9 dd19 0000
000001a0: 7e07 0000 381e 0000 2709 0080 e705 0080
000001b0: 9a17 0000 6113 0080 9a08 0000 b216 0080
000001c0: 9b1b 0080 8923 0080 fc1d 0080 940e 0000
000001d0: af12 0000 6901 0000 820d 0000 1706 0000
000001e0: 2618 0000 1a03 0080 f90b 0080 7218 0000
000001f0: 240f 0080 740d 0000 d117 0080 d116 0080
00000200: 3f03 0080 7460 0000 c1d0 0000 0c59 0000
00000210: a232 0000 4786 0080 5817 6992 a024 0000
00000220: d05c 0000 7416 0000 fa2c 0000 8f48 0080
00000230: 8d86 0080 f3e2 0080 475d 0000 f92e 0000
00000240: d50e 0000 1a01 0100 d45a 0080 d724 0000
00000250: a76d 0000 c9be 0080 a886 0000 5046 0000
00000260: 04ab 0080 da54 0080 1f87 0080 2682 0000
00000270: 6d21 0000 2387 0080 c24f 0000 f4c8 0080
00000280: a62b c0bd 6cd7 eb3c 5cfd 8e3c 4ea8 d3bc
00000290: 354a f6bb 793f 039f f314 9a90 d7f3 2fbd
000002a0: abcf 66bd c335 fc3b f8e0 db3c 0419 2abe
000002b0: 6908 eabd 1ec7 dfbb 46df 58bd 1927 41bd
000002c0: 14ee 06bd 1477 84bb 9042 0abe e113 393d
000002d0: c6db 523d db18 563d 947b 813c 8fa8 ccbc
000002e0: a8fe 81bc 608b d0bd 1b50 a13c d45a adbd
000002f0: 2fd7 8dbd 208c 88bd b4e8 4a3c 8354 883c
00000300: 373e 143d a57d 10bd 9209 b73c a5e2 003c
00000310: f1e1 903b 2014 499c 832c b891 8d25 3c3b
00000320: 236d acbb ad0f b5ba 58d4 873d e743 c43d
00000330: 3700 203d 067c 9d3b 0087 1cbd f95d b93d
00000340: 31bb c13c 0564 16bc f020 8c3d 8f00 813c
00000350: 5cbe 913b 2d19 3abd 6f47 453e ee29 93bd
00000360: d9bc 293d e761 a73d 7cdf fe3a d603 2a3e
00000370: 04f8 cd3d 4a3c 893d fb91 e73c c49c 70bc
00000380: 2919 0080 760e 0080 9100 0000 f812 0000
00000390: c810 0000 2c00 0100 3244 05a8 9800 0000
000003a0: 7e19 0000 b11d 0080 6c10 0000 9b16 0080
000003b0: 7901 0080 8d02 0000 b60c 0080 7c0f 0000
000003c0: 8c05 0000 5f18 0000 5708 0080 9512 0000
000003d0: a40c 0000 6215 0080 1b0c 0080 4316 0080
000003e0: 3a0e 0080 5613 0080 6d17 0080 1410 0000
000003f0: b310 0080 8814 0000 3808 0000 c812 0080

conv2.fc.1.weight f4 [32]
6.09e-42 0.3552138 -6.5151565e-11 3.7146543e-30 2.2398e-41 0.29457057 0.27584928 2.7127195e-08
-4.3191e-41 0.13962215 2.4262624e-23 4.82415e-13 4.62e-43 0.0003728934 9.198e-42 2.3494843e-30
2.5277e-41 -2.852e-42 -2.8420172e-29 4.709337e-36 -6.54e-43 0.49340558 -1.0151e-41 -2.983558e-39
9.166e-42 -3.9536e-41 2.64752e-13 0.0004434164 0.39309397 0.1137554 1.5861e-41 0.1386429
00000000: fa10 0000 95de b53e 1245 8fae 2daf 960e
00000010: 703e 0000 f4d1 963e 1e3c 8d3e 5505 e932
00000020: 6678 0080 1cf9 0e3e 59a7 ea19 aac9 072b
00000030: 4a01 0000 e880 c339 a419 0000 e19c 3e0e
00000040: 7646 0000 f307 0080 7e1b 1090 2450 c804
00000050: d301 0080 a89f fc3e 4c1c 0080 f27c 2080
00000060: 8d19 0000 366e 0080 c90a 952a 577a e839
00000070: 9d43 c93e 97f8 e83d 372c 0000 68f8 0d3e

conv2.fc.1.bias f4 [32]
-3.5310773e-18 0.11349673 3.4670238e-09 -1.0694804e-37 -1.6689302e-26 0.07565213 0.19390674 -1.9047563e-12
-4.510335e-37 0.052703153 -4.4583496e-31 -4.5651807e-17 -3.9429427e-36 -0.0075444784 -1.3123361e-15 -3.4162926e-34
-1.1190862e-10 3.7734277e-37 -0.010398052 -2.442337e-05 -2.3290357e-21 0.1574867 -1.1274942e-21 -3.2513645e-33
-6.720637e-25 -6.108598e-35 -1.306519e-10 -0.00093113567 0.3070675 0.105510466 -4.849334e-05 -0.0065714647
00000000: 1546 82a2 f970 e83d 8740 6e31 f491 1182
00000010: 6848 a594 81ef 9a3d 7d8f 463e 0a09 06ac
00000020: 8f7a 1983 43df 573d 85ae 108d 2488 52a4
00000030: d8b6 a784 ac37 f7bb a820 bda6 350d e387
00000040: f416 f6ae 3167 0003 975c 2abc cae0 ccb7
00000050: 1afa 2f9d 3244 213e d261 aa9c 700e 8789
00000060: 5ffe 4f97 f764 a286 3ea7 0faf 7517 74ba
00000070: f437 9d3e df15 d83d 5465 4bb8 7155 d7bb

conv2.fc.1.running_mean f4 [32]
-4.2494942e-35 -0.13158214 3.3020112e-10 1.4031e-41 2.273e-42 -0.12444493 0.18395871 -4.926e-42
-9.767612e-16 -0.07357596 -1.343347e-38 4.7994e-40 -7.683e-42 -9.649485e-22 -5.549e-42 -4.8325464e-30
3.038e-42 1.9740527e-34 -1.5270895e-31 -1.25442e-33 6.7650974e-35 0.02944329 5.280031e-35 -5.931865e-34
9.187943e-38 -3.30921e-40 4.51526e-07 -1.9187051e-05 0.2271204 0.08248376 -1.6604793e-34 -0.08052369
00000000: 1ef1 6186 78bd 06be ad87 b52f 1d27 0000
00000010: 5606 0000 fcdc febd ac5f 3c3e bb0d 0080
00000020: 21c4 8ca6 feae 96bd 0d47 9280 e139 0500
00000030: 6b15 0080 a3d1 919c 780f 0080 0808 c48e
00000040: 7808 0000 c432 8307 413a 468c 206d d088
00000050: ded8 b306 0e33 f13c 075e 8c06 ba1e 4588
00000060: 9e1e fa01 799a 0380 4369 f234 e1f3 a0b7
00000070: 4092 683e 3fed a83d 2fb7 5c87 9be9 a4bd

conv2.fc.1.running_var f4 [32]
6e-45 0.0016696937 3.115215e-17 6e-45 6e-45 0.0010542937 0.0005653093 6e-45
3.921711e-29 0.00036661487 6e-45 6e-45 6e-45 3.723e-42 6e-45 6e-45
6e-45 6e-45 6e-45 6e-45 6e-45 0.0010508349 6e-45 6e-45
6e-45 6e-45 9.130622e-12 7.4006995e-11 0.002009017 0.0001533425 6e-45 0.00027214125
00000000: 0400 0000 a0d9 da3a f8a9 0f24 0400 0000
00000010: 0400 0000 3a30 8a3a 4431 143a 0400 0000
00000020: b8da 4610 3736 c039 0400 0000 0400 0000
00000030: 0400 0000 610a 0000 0400 0000 0400 0000
00000040: 0400 0000 0400 0000 0400 0000 0400 0000
00000050: 0400 0000 2bbc 893a 0400 0000 0400 0000
00000060: 0400 0000 0400 0000 aaa0 202d 3cbe a22e
00000070: b6a9 033b 90ca 2039 0400 0000 2eae 8e39

conv2.fcs.0.weight f4 [32, 32, 1, 1]
5.7000173e-19 0.07515446 -8.717436e-09 -3.2281043e-38 3.6971002e-27 0.058019146 -0.030399812 -1.78e-42
4.733873e-38 0.0324358 -2.506e-42 -5.862e-42 -1.792505e-36 -8.710113e-21 -8.05e-42 -1.406852e-35
-3.5093864e-12 1.4760518e-36 -0.00057042076 -6.433948e-06 6.209218e-23 0.02233974 -7.078903e-22 4.739e-42
1.5546882e-25 -1.0252e-41 -3.689262e-11 4.838733e-11 -0.022435414 0.041540604 4.1566056e-11 0.025545781
6.324107e-19 0.014162975 -3.8747665e-08 8.211065e-39 8.078733e-28 0.0070365495 0.027748665 8.3e-43
1.933673e-39 -0.0013746492 1.57e-42 -4.977e-42 -6.961589e-37 1.6953876e-21 -1.0543e-41 1.4339616e-35
1.1153329e-13 7.778482e-37 0.0003124297 -4.1699686e-06 3.763305e-23 0.050922714 -7.28017e-23 -6.16e-42
-1.2371348e-26 5.831e-42 -2.433662e-11 -5.231348e-14 0.013540559 -0.02250753 2.0122726e-11 0.00020968915
-3.048665e-19 -0.005896083 -1.0471733e-08 -2.1521803e-38 4.5087364e-27 -0.010713697 0.0014590928 -4.861e-42
-6.763946e-39 0.005818102 -7.637e-42 -6.377e-42 -2.8188961e-36 1.7090785e-21 9.469e-42 -4.5523516e-36
1.1113647e-11 -1.2512645e-36 0.00020879827 -1.3291422e-06 -2.882998e-23 -0.02798513 -3.6233545e-22 7.193e-42
-6.410057e-26 -2.751e-42 1.5292705e-11 -3.4283828e-14 -0.053040836 -0.006844228 -1.10714216e-11 0.0027430682
-9.707475e-22 0.0239815 5.0830685e-08 7.613191e-39 -1.4836236e-26 0.03025245 -0.0039209113 6.665e-42
8.7184945e-38 0.018297896 -6.457e-42 1.1278e-41 3.605672e-36 -1.0972301e-21 -1.6125e-41 5.9564804e-36
-3.295561e-11 5.7349985e-37 -0.00065147807 5.1282527e-06 -1.1495865e-22 0.02642025 -9.1185265e-23 6.14e-42
-1.6504768e-26 1.352e-41 3.1675055e-11 -1.2588163e-21 0.012599783 -0.02704248 2.8015527e-11 0.016647281
-4.0418084e-20 0.0372765 -1.5945146e-08 -7.2702e-39 1.9100034e-26 0.032077767 0.09402706 -3.684e-42
-1.8431574e-38 0.009760604 -5.827e-42 -4.404e-42 2.2465617e-36 1.0017941e-21 1.418e-42 1.6974905e-35
3.8433996e-11 -1.1335478e-37 0.00060656597 -1.7614518e-06 3.0379475e-23 0.14310181 1.617812e-22 7.151e-42
-8.770632e-26 3.471e-42 1.4898452e-13 7.658466e-06 -0.008684611 0.0032839144 3.3595453e-11 0.018525079
-5.4922e-41 -1.1029951e-30 -3.6197218e-06 2.0675e-41 -4.2827173e-09 -2.6522626e-30 -5.018933e-30 -2.92177e-14
-7.048418e-20 -7.011724e-31 4.7781e-41 5.7917537e-06 5.2626323e-08 2.6777234e-14 -1.30071e-40 5.4211437e-13
1.51222e-11 1.1039527e-11 -1.9031267e-20 3.6926847e-22 3.49772e-05 -3.951952e-30 6.40181e-26 1.827e-42
4.882759e-22 1.0487051e-23 -2.4693964e-08 -1.645e-41 6.2274648e-30 -2.5422439e-30 9.658349e-07 2.0621336e-30
4.892009e-13 2.144297e-22 -6.3283005e-15 -9.121413e-13 -3.4663074e-11 2.8872376e-25 -1.557506e-11 2.8529929e-08
2.4189976e-07 -0.00022739614 3.4447068e-14 -9.2077916e-14 1.7534029e-06 6.552641e-14 1.2270074e-17 -6.2686115e-05
-3.2182024e-12 1.7374238e-10 -2.2459073e-05 3.1457097e-05 1.3141822e-08 4.5057172e-10 1.1301649e-11 2.733971e-13
4.8152725e-11 7.732269e-09 8.606856e-09 -4.7296273e-12 -1.0991172e-22 6.897505e-21 5.5712025e-11 -3.8103632e-13
-2.2919474e-19 0.0234256 4.3231068e-09 -6.028752e-39 2.6039811e-27 0.011131948 -0.045747347 -1.673e-42
-3.0529263e-38 0.008459175 -7.37e-42 6.67e-42 -3.093538e-36 1.8454498e-21 6.376e-42 -7.0166215e-36
-2.9974118e-12 -6.8359245e-37 0.00022555463 -2.122548e-06 4.3341482e-23 0.011824258 1.2376604e-22 -7.255e-42
4.4891043e-27 -7.688e-42 -3.8142085e-12 5.2589316e-16 -0.08058958 -0.021940969 -8.837925e-12 0.0073009054
00000000: 1d3c 2821 95ea 993d b0c3 15b2 35c1 2f81
00000010: 0d75 9213 7ca5 6d3d 0709 f9bc f604 0080
00000020: 48de 8001 67db 043d fc06 0080 5710 0080
00000030: 4d7d 1884 8687 249e 7116 0080 279a 9585
00000040: 7cf3 76ac 2023 fb03 4a88 15ba 31e3 d7b6
00000050: 3321 961a d501 b73c 5cf2 559c 360d 0000
00000060: 0976 4016 941c 0080 6641 22ae 4acf 542e
00000070: 79ca b7bc 7b26 2a3d 38cf 362e 6345 d13c
00000080: 9aa7 3a21 d30b 683c 826b 26b3 1c69 5900
00000090: 3c03 8012 db92 e63b 2b51 e33c 5002 0000
000000a0: 4b0e 1500 932d b4ba 6004 0000 e00d 0080
000000b0: fee3 6c83 9119 001d 641d 0080 267c 9805
000000c0: 9026 fb29 1158 8403 9bcd a339 c2eb 8bb6
000000d0: 76fb 351a 5694 503d 1206 b09a 2c11 0080
000000e0: 300a 7594 4110 0000 3211 d6ad 5699 6ba9
000000f0: 39d9 5d3c b661 b8bc 5a00 b12d 01e0 5b39
00000100: 1ff6 b3a0 ee33 c1bb 2be7 33b2 085a ea80
00000110: 059c b213 8188 2fbc 083f bf3a 8d0d 0080
00000120: 21a7 4980 c7a5 be3b 4a15 0080 c711 0080
00000130: 1fce 6f84 6322 011d 651a 0000 b8a2 c184
00000140: 6b83 432d 41e4 d483 dcf0 5a39 fa64 b2b5
00000150: c969 0b9a 1241 e5bc b204 db9b 0d14 0000
00000160: 90b4 9e95 ab07 0080 1c84 862d 9066 1aa9
00000170: 5941 59bd 8c45 e0bb 40c5 42ad 0cc5 333b
00000180: fab1 929c da74 c43c ee50 5a33 7be6 5200
00000190: 54ee 9294 fcd3 f73c fd7a 80bb 9412 0000
000001a0: 0a57 ed01 78e5 953c 0012 0080 701f 0000
000001b0: 4b5e 9904 09cf a59c f32c 0080 545c fd04
000001c0: b8f0 10ae e226 4303 f4c7 2aba 5b13 ac36
000001d0: fbf9 0a9b 486f d83c f278 dc9a 1e11 0000
000001e0: 8f74 a394 b025 0000 f14e 0b2e 193a be9c
000001f0: 526f 4e3c 3188 ddbc 5c6d f62d e15f 883c
00000200: 77de 3e9f 3eaf 183d bff7 88b2 5c2a 4f80
00000210: 5728 bd14 fa63 033d 4291 c03d 450a 0080
00000220: bbb3 c880 f1ea 1f3c 3e10 0080 470c 0080
00000230: c81d 3f04 0863 971c f403 0000 1682 b405
00000240: d508 292e 604a 1a82 f401 1f3a 066b ecb5
00000250: f8e7 121a 4889 123e db94 431b ef13 0000
00000260: 7c26 d995 ad09 0000 ddbd 272a dc7c 0037
00000270: e649 0ebc f136 573b 1ec1 132e e8c1 973c
00000280: 1a99 0080 a0f8 b28d 59ea 72b6 a239 0000
00000290: 2e27 93b1 572d 578e 9597 cb8e b795 03a9
000002a0: 136d a69f 208b 638d 3285 0000 c956 c236
000002b0: 4107 6233 1930 f128 966a 0180 7597 182b
000002c0: 2b04 852d 9c35 422d c8be b39e 8735 df1b
000002d0: 7cb4 1238 6a4f a08e 4b80 9e15 1805 0000
000002e0: 8592 131c 5cd9 4a19 9a1e d4b2 db2d 0080
000002f0: b19d fc0e 5740 4e8e d6a1 8135 d74c 270e
00000300: a4b2 092b 649d 811b 4500 e4a7 5b5f 80ab
00000310: 2773 18ae 1bb6 b216 ebff 88ad fa11 f532
00000320: 73de 8134 3071 6eb9 c422 1b29 4e57 cfa9
00000330: 7756 eb35 678d 9329 c957 6223 5a76 83b8
00000340: fb75 62ac 2208 3f2f 7e66 bcb7 cdf0 0338
00000350: 58c6 6132 55b4 f72f 1ad2 462d ade8 992a
00000360: 26c7 532e e1d6 0432 5add 1332 b268 a6ac
00000370: 08e0 049b 4a4a 021e 2a06 752e 1f81 d6aa
00000380: ee4a 87a0 0be7 bf3c 738a 9431 b5a5 4180
00000390: 034f 4e13 c662 363c 9261 3bbd aa04 0080
000003a0: 9537 2681 5a98 0a3c 8b14 0080 9812 0000
000003b0: a595 8384 3170 0b1d c611 0000 1f3a 1585
000003c0: 92ec 52ac 4d9d 6883 dc82 6c39 1971 0eb6
000003d0: 2896 511a 88ba 413c bc9f 151b 3914 0080
000003e0: edd4 b113 6e15 0080 5633 86ac 1194 1726
000003f0: 260c a5bd 8cbd b3bc 7a7a 1bad 6f3c ef3b

conv2.fcs.1.weight f4 [32, 32, 1, 1]
-5.700018e-19 -0.07515448 8.7174366e-09 3.2281043e-38 -3.6971033e-27 -0.058019135 0.030397478 3.726e-42
-4.733882e-38 -0.032435805 2.506e-42 5.862e-42 1.7925046e-36 8.710113e-21 8.02e-42 1.4068515e-35
3.5093864e-12 -1.4760518e-36 0.0005704213 6.433951e-06 -6.209214e-23 -0.022341497 7.078901e-22 -4.739e-42
-1.5546877e-25 1.0252e-41 3.6892624e-11 -4.838733e-11 0.022198131 -0.041540943 -4.1566018e-11 -0.025545778
-6.324107e-19 -0.014162992 3.8747665e-08 -8.209204e-39 -8.078733e-28 -0.007036556 -0.02774867 -4.264e-42
-1.936215e-39 0.0013746461 -1.57e-42 -9.675e-42 6.9616436e-37 -1.695392e-21 -7.731e-42 -1.4339629e-35
-1.1153329e-13 -7.7785015e-37 -0.0003124294 4.169968e-06 -3.7633042e-23 -0.05092273 7.280169e-23 -9.457e-42
1.2371354e-26 -5.831e-42 2.433662e-11 5.231301e-14 -0.013539177 0.022507526 -2.0122796e-11 -0.00020968897
3.048664e-19 0.005896106 1.0471758e-08 2.151988e-38 -4.508736e-27 0.010713692 -0.0014588269 4.861e-42
6.763946e-39 -0.0058181044 3.34e-42 7.198e-42 2.8189024e-36 -1.709082e-21 -7.113e-42 4.5523533e-36
-1.1113653e-11 1.2512645e-36 -0.0002087983 1.3291399e-06 2.882999e-23 0.027985146 3.6233548e-22 -7.193e-42
6.4100464e-26 2.751e-42 -1.5292705e-11 3.428389e-14 0.053035 0.006844229 1.1071402e-11 -0.0027430684
9.707205e-22 -0.023981497 -5.0830593e-08 -7.610008e-39 1.4836241e-26 -0.030252447 0.0039209207 -6.665e-42
-8.7184766e-38 -0.018297894 -8.999e-42 -8.71e-42 -3.605672e-36 1.0972312e-21 -1.0356e-41 -5.9564804e-36
3.2955593e-11 -5.7349765e-37 0.00065147824 -5.1282573e-06 1.1495868e-22 -0.026420243 9.118525e-23 -8.946e-42
1.6504765e-26 -1.0035e-41 -3.1675045e-11 1.2588163e-21 -0.012601807 0.027042484 -2.8015316e-11 -0.016647285
4.0418084e-20 -0.037266165 1.5945139e-08 7.269188e-39 -1.9100047e-26 -0.032071486 -0.094556175 3.684e-42
1.8431499e-38 -0.009764955 7.538e-42 1.222e-42 -2.2465606e-36 -1.0018108e-21 3.5e-43 -1.6974903e-35
-3.8433996e-11 1.1335528e-37 -0.00060656585 1.7614504e-06 -3.037945e-23 -0.14289854 -1.6178122e-22 -1.872e-42
8.770674e-26 -3.471e-42 -1.489875e-13 -7.658481e-06 0.008007725 -0.0033754732 -3.359552e-11 -0.018522704
5.4922e-41 1.1029951e-30 4.7145992e-08 2.9385e-41 2.5000753e-07 2.6522626e-30 5.018933e-30 -7.960064e-15
-5.5861916e-17 7.011724e-31 5.5099e-41 -5.9079954e-05 -5.6646934e-07 -4.8610784e-14 1.30071e-40 4.483241e-12
1.2122509e-12 1.1563085e-14 1.9031267e-20 3.742445e-22 3.1649615e-13 3.951965e-30 6.2228097e-26 -1.827e-42
-8.352547e-22 1.5588655e-24 -2.2091576e-15 7.2168e-41 -6.2274648e-30 2.5422439e-30 6.42657e-11 -2.0621336e-30
7.433289e-14 -2.144297e-22 -1.3660927e-13 3.1119753e-11 -2.6996559e-05 4.1586647e-25 1.5574656e-11 2.0044307e-27
-1.6638264e-06 0.00022739537 -2.6011674e-07 9.668271e-11 -1.6735743e-06 1.5469124e-05 1.6455956e-16 2.8967996e-05
3.516773e-06 -7.0846734e-10 4.4148196e-11 -6.8150195e-13 -2.3175886e-09 -4.4999815e-10 -3.305989e-11 -2.733971e-13
1.6717866e-10 -2.6301375e-05 4.044731e-06 4.7296273e-12 1.1100057e-22 7.416464e-26 -3.7214165e-06 3.8103632e-13
2.2919476e-19 -0.023425592 -4.323109e-09 6.028892e-39 -2.6039811e-27 -0.011131948 0.045747377 4.776e-42
3.0529375e-38 -0.008459181 1.1178e-41 -1.4066e-41 3.0935397e-36 -1.8454468e-21 -6.376e-42 7.016626e-36
2.9973881e-12 6.836008e-37 -0.00022555463 2.1225464e-06 -4.3341422e-23 -0.011824238 -1.2376607e-22 -6.246e-42
-4.489101e-27 -9.976e-42 3.8142107e-12 -5.2589316e-16 0.08058964 0.02194097 8.837929e-12 -0.00730091
00000000: 1e3c 28a1 98ea 99bd b1c3 1532 35c1 2f01
00000010: 1575 9293 79a5 6dbd 2204 f93c 630a 0000
00000020: 58de 8081 68db 04bd fc06 0000 5710 0000
00000030: 4b7d 1804 8687 241e 5b16 0000 249a 9505
00000040: 7cf3 762c 2023 fb83 5388 153a 38e3 d736
00000050: 2c21 969a 8405 b7bc 58f2 551c 360d 0080
00000060: 0576 4096 941c 0000 6741 222e 4acf 54ae
00000070: dbd8 b53c d626 2abd 2dcf 36ae 6145 d1bc
00000080: 9aa7 3aa1 e50b 68bc 826b 2633 ec63 5980
00000090: 3c03 8092 e992 e6bb 2e51 e3bc e30b 0080
000000a0: 6115 1580 782d b43a 6004 0080 f81a 0080
000000b0: 78e4 6c03 a719 009d 8d15 0080 2f7c 9885
000000c0: 9026 fba9 2758 8483 90cd a3b9 c1eb 8b36
000000d0: 73fb 359a 5a94 50bd 1006 b01a 5d1a 0080
000000e0: 380a 7514 4110 0080 3211 d62d cb98 6b29
000000f0: 6dd3 5dbc b461 b83c 8200 b1ad f4df 5bb9
00000100: 1cf6 b320 1f34 c13b 47e7 3332 ac54 ea00
00000110: 049c b293 7b88 2f3c 1c36 bfba 8d0d 0000
00000120: 21a7 4900 cca5 bebb 5009 0000 1114 0000
00000130: 42ce 6f04 7422 019d d413 0080 bda2 c104
00000140: 7283 43ad 41e4 d403 def0 5ab9 e664 b235
00000150: cd69 0b1a 1b41 e53c b304 db1b 0d14 0080
00000160: 7fb4 9e15 ab07 0000 1c84 86ad a266 1a29
00000170: 3a3b 593d 8e45 e03b 29c5 422d 0dc5 33bb
00000180: eeb0 921c d874 c4bc d450 5ab3 9bdd 5280
00000190: 57ee 9214 fbd3 f7bc 117b 803b 9412 0080
000001a0: ea56 ed81 77e5 95bc 1619 0080 4818 0080
000001b0: 4b5e 9984 13cf a51c de1c 0080 545c fd84
000001c0: b3f0 102e b126 4383 f7c7 2a3a 6513 acb6
000001d0: fdf9 0a1b 446f d8bc f078 dc1a f018 0080
000001e0: 8d74 a314 f91b 0080 ee4e 0bae 193a be1c
000001f0: cf77 4ebc 3388 dd3c e26c f6ad e35f 88bc
00000200: 77de 3e1f 68a4 18bd bbf7 8832 8a27 4f00
00000210: 5f28 bd94 645d 03bd aba6 c1bd 450a 0000
00000220: 85b3 c800 31fd 1fbc 0315 0000 6803 0000
00000230: c21d 3f84 ae63 979c fa00 0000 1582 b485
00000240: d508 29ae 8d4a 1a02 f201 1fba fa6a ec35
00000250: f0e7 129a ff53 12be dd94 439b 3805 0080
00000260: c026 d915 ad09 0080 b9be 27aa ed7c 00b7
00000270: d532 033c 0b37 5dbb 31c1 13ae edbc 97bc
00000280: 1a99 0000 a0f8 b20d 917d 4a33 ea51 0000
00000290: c638 8634 572d 570e 9597 cb0e 5165 0fa8
000002a0: 0ecf 80a4 208b 630d 9899 0000 9ecc 77b8
000002b0: 7a0f 18b5 6bec 5aa9 966a 0100 72bd 9d2c
000002c0: f19b aa2b 514d 5028 c8be b31e 8837 e21b
000002d0: e72b b22a 8d4f a00e be11 9a15 1805 0080
000002e0: b470 7c9c 0639 f117 c42f 1fa7 2dc9 0000
000002f0: b19d fc8e 5740 4e0e 5f52 8d2e d74c 278e
00000300: fe61 a729 649d 819b f1ce 19aa badd 082e
00000310: ab76 e2b7 56b4 0017 02ff 882d afce 1e13
00000320: a450 dfb5 fb70 6e39 2ca6 8bb4 879b d42e
00000330: 939f e0b5 b1c3 8137 69b9 3d25 4c00 f337
00000340: b301 6c36 f5bd 42b0 732a 422e 64d3 3fab
00000350: 7343 1fb1 9c63 f7af 2166 11ae ade8 99aa
00000360: 9cd0 372f c6a1 dcb7 fab7 8736 b268 a62c
00000370: 0331 061b 6d9f b715 73bd 79b6 1f81 d62a
00000380: ef4a 8720 07e7 bfbc 788a 94b1 19a6 4100
00000390: 034f 4e93 c662 36bc 9a61 3b3d 500d 0000
000003a0: bd37 2601 6098 0abc 291f 0000 3627 0080
000003b0: aa95 8304 2270 0b9d c611 0080 253a 1505
000003c0: 25ec 522c 079e 6803 dc82 6cb9 1271 0e36
000003d0: 1596 519a 73ba 41bc be9f 159b 6911 0080
000003e0: e5d4 b193 cf1b 0080 5b33 862c 1194 17a6
000003f0: 2e0c a53d 8dbd b33c 7e7a 1b2d 793c efbb
